ag-20251024_075719/models/NeuralNetFastAI/model-internals.pkl (torch, 126817 bytes, 15 tensors)

weight f4 [7]
00000000: 370f 7e3f 626e 783f fb72 863f dbc5 763f
00000010: 83a5 803f ea77 8a3f 0adc 783f
0.99241966 0.9704343 1.0503839 0.96395653 1.005051 1.0817845 0.9721075

bias f4 [7]
00000000: d052 d73b 22ef 90bb 9ff0 9b3d f594 c13c
00000010: 49ab 77bd a5ba d5bb c2d1 db3a
0.0065711513 -0.004423038 0.07614254 0.023630599 -0.060466085 -0.006522494 0.0016770887

running_mean f4 [7]
00000000: 580d 0d3c 1b8c aa3c fbea dc3b 0ba7 f23b
00000010: ede1 133b 3a68 223c 000e 67bb
0.008609138 0.02081876 0.006741879 0.007405167 0.0022565082 0.009912545 -0.0035256147

running_var f4 [7]
00000000: caec 793f 197f 8b3f 8a36 7b3f 2828 793f
00000010: 7971 7f3f 6557 793f 74a5 813f
0.97626936 1.0898162 0.98130095 0.973269 0.9978252 0.9739898 1.0128617

weight f4 [200, 7]
00000000: b9c6 383d b3ca 4c3e 93ad 9bbe e16d 90be
00000010: 3d2f 17be 9353 013e c5c7 653c 32c9 903e
00000020: 2beb 82bc 29d9 743d 19e6 9dbd bf06 b1bd
00000030: 8f5f c7be 8f63 80be eba9 2ebe e111 c7bc
00000040: 486a ee3d 2d9d 903e 506f 6cbe 01ce 38be
00000050: d86d ac3d f5b5 8a3e 5436 c9bc ae50 9e3e
00000060: 7f0f 4bbd 7ce2 fa3c bdcb b63e bfa8 c0be
00000070: 91c3 6cbe 4223 e1bd 0942 09be 88ac b03e
00000080: 44e3 5abe da85 39be 2965 80be b590 dabe
00000090: 98b3 2dbe 3f53 a23e aceb 1e3e ffd9 323e
000000a0: 7ac0 bebd 3ee7 0ebe a7a2 733d bf27 c8be
000000b0: b8c2 99be b156 20be 40b3 513e df59 303e
000000c0: fdbd 57be 6799 7abd f517 403e 0240 d33e
000000d0: fb85 593e 572e c43d dbd8 5f3e e6eb 31be
000000e0: 4a39 ed3d f06d 9bbe 150a 8cbe 4568 2ebe
000000f0: d711 183e 2046 323e 47c1 50be 5364 e23d
00000100: 7537 4b3e c536 38be 62b5 823d 7459 2a3d
00000110: c5a2 4a3e 308c c03e e8c3 a3be 9a59 33be
00000120: d2db a73d 3c99 9a3e 4d10 ae3e 486a 8c3e
00000130: 5dd6 ae3d dfba b2be 0644 673c cee0 7bbe
00000140: f991 a7be dfcb b43e 94cb 813e 5855 b8be
00000150: c57f bd3d 3675 a5bd a4ff 77bd 4861 47be
00000160: 294d 2b3e 9b8c 3ebe 398f f23d 9072 3d3e
00000170: 8251 703e a75c d93d f4d2 cbbe 47c1 8fbe
00000180: d6d1 233e 79af 003e 434f 8abe 8885 68be
00000190: 027a af3e 569a 813e ad53 55be 0aa8 e4bd
000001a0: 6b0b b4be 6898 623c aab4 9fbe 0964 8cbe
000001b0: cc3c ec3b f67f 813d bf96 e6bd c30f 6d3e
000001c0: 6bbe 8fbe 428d 9c3e fa02 8e3e ea01 8abe
000001d0: 8f41 3dbe 75c6 eb3c 23e6 133d 7647 a33d
000001e0: 61c7 263e aa7d 303d 71da 08be fc22 3e3e
000001f0: d955 d1be 6e9e 23be 24a8 41bd d8be 17be
00000200: bbf3 00be e8cc cbbe 8b45 8fbd 43a4 f13d
00000210: dad4 44be 01a4 7e3c be6f 913e 4cdc e0bc
00000220: 5dbb 383d afc3 fabb 47fc 033e 13a9 633e
00000230: 0c37 ac3e a9d0 803e 91cf a03e 2a22 a2bc
00000240: a27d dbbe b08a 55be 2c28 4d3e 4919 b83b
00000250: dc3b 15be 98e4 96be a47a c9be fcb4 98be
00000260: f913 5cbd 07ed 433e 444b 723e 2986 cabe
00000270: a87d 353e f3e5 96be b2ce 9cbd 7277 07be
00000280: 98a3 88bd 8a24 b7bd 447b 96be 80f9 bbbe
00000290: d48c a3bd 26de 1ebc 1914 54be 65cd 0f3e
000002a0: eb17 a5be 9ac0 fcbb a53b b63e 7ec1 0abe
000002b0: d7f6 ab3e ea69 323e 15a9 b7be 4754 6d3e
000002c0: c654 15bd 7fb3 4bbe f46f 9c3e e0d4 94be
000002d0: 8fd6 3f3d 2cac fbbd 6e17 633e c5ca 133e
000002e0: d2ca 823e a6bb 1a3e 6170 91bd 03b6 96bd
000002f0: 9024 91be 29da 7e3e 4394 a43e 7c01 803e
00000300: 9791 6dbe 3b96 1c3d 6ee9 73be 3a9e 7bbe
00000310: 7156 4cbe 13a6 fa3d cfdb 8abe 0acb 3ebc
00000320: 8500 293d 281b 733e 9951 87be deb8 65be
00000330: 8054 75be 8734 473e 9961 1bbe 5ec8 b83e
00000340: 5b37 4a3e 7894 2bbd 6ea9 2bb9 7b55 abbd
00000350: bf83 9bbc cbc1 83bd 86dc 143d 2acb 9e3c
00000360: 4968 aabe b3b2 89be d1eb 9f3e f1b6 9abe
00000370: fd97 773d da1f b73e 415b db3c c0d1 773d
00000380: f770 9ebe 13e7 483e 94a3 8fbe 72e7 cdbd
00000390: b770 b6bd ff14 88bd c4f6 f03c 8185 bd3e
000003a0: 3434 933d 0a33 b73e 9d99 1d3e a274 52be
000003b0: 4036 733e a5cb 92be fb3e 34be aa97 a43d
000003c0: c98e bb3d 9b19 b03e b4ac 8fbd 5063 b93b
000003d0: ca5e 553e 4cc7 c1be 471e 893e ed11 9cbe
000003e0: 939e 64bc d95f b8bd 83ba 56be f385 e23c
000003f0: 62fc 853e 474a 92bd 835b 55be 404b 27be
0.04511139 0.19999199 -0.30405864 -0.2820883 -0.14764114 0.12629537 0.01402468 0.282785
-0.015981277 0.059777413 -0.07709903 -0.08643865 -0.38940093 -0.25075957 -0.17057006 -0.024300518
0.11641365 0.28244916 -0.23089337 -0.18047334 0.084193885 0.27091947 -0.024562038 0.3092093
-0.049575325 0.030625574 0.35702315 -0.37628743 -0.23121478 -0.10993053 -0.13404097 0.3450663
-0.21375757 -0.18117467 -0.2507718 -0.42688528 -0.16963041 0.31704137 0.15519589 0.17465971
-0.09314056 -0.139554 0.05948129 -0.39092824 -0.3003137 -0.1565807 0.20478535 0.17221783
-0.21068569 -0.061181452 0.18759139 0.41259772 0.21242516 0.09579151 0.21860068 -0.17375144
0.11583193 -0.30357313 -0.27351442 -0.17031963 0.14850555 0.17409563 -0.2038623 0.110542916
0.19845374 -0.17989643 0.06382252 0.041589215 0.19788654 0.37606955 -0.31985402 -0.17514649
0.08196224 0.30195034 0.33996812 0.27424836 0.0853698 -0.34908196 0.014115339 -0.24597475
-0.32728556 0.3531179 0.2535063 -0.36002612 0.09252886 -0.08078997 -0.060546532 -0.19470704
0.16728653 -0.18608324 0.11843724 0.18500733 0.23468593 0.10613375 -0.39809382 -0.28077146
0.15998015 0.12566938 -0.27013597 -0.22707188 0.34272772 0.2531306 -0.20832701 -0.111648634
-0.3516496 0.013830282 -0.31192523 -0.2742007 0.007209396 0.06323235 -0.11259221 0.23150544
-0.28074965 0.3057652 0.27736646 -0.26954585 -0.1848204 0.028781155 0.036108147 0.079726145
0.16286995 0.043088593 -0.13364579 0.18568033 -0.4088581 -0.15978405 -0.047279492 -0.14818895
-0.12592976 -0.3980477 -0.06995686 0.117989086 -0.19221821 0.015542031 0.28405565 -0.027448796
0.04510056 -0.007652722 0.12889205 0.22232465 0.33635747 0.25159195 0.3140836 -0.019791681
-0.42869288 -0.20853686 0.20034856 0.0056182486 -0.14573616 -0.29471278 -0.3935138 -0.2982558
-0.053729985 0.19133388 0.23661524 -0.3955548 0.17723715 -0.29472312 -0.076566115 -0.13229159
-0.06671828 -0.08942516 -0.2939092 -0.3671379 -0.07985845 -0.009696519 -0.20710792 0.14043196
-0.3224481 -0.0077133896 0.3559238 -0.13550374 0.3358676 0.17423216 -0.35871187 0.2317668
-0.0364578 -0.19892691 0.30554163 -0.2906866 0.04683548 -0.122886986 0.22176906 0.14432819
0.25545365 0.15110645 -0.07101513 -0.07358935 -0.28348207 0.24887909 0.32144365 0.25001132
-0.2320007 0.03822921 -0.23819515 -0.24572077 -0.1995485 0.122387074 -0.27120826 -0.011645088
0.04126026 0.23740828 -0.26429442 -0.22433802 -0.23958015 0.19453631 -0.1517395 0.36090368
0.19747679 -0.041889638 -0.00016370948 -0.083659135 -0.01898372 -0.064334475 0.03634312 0.019383986
-0.33282688 -0.2689415 0.312346 -0.30217698 0.06044768 0.35766488 0.026776912 0.060502768
-0.3094556 0.19619398 -0.28054488 -0.1005391 -0.089082174 -0.0664463 0.029414542 0.37015918
0.07187691 0.35781127 0.1539063 -0.20552304 0.23751163 -0.28670993 -0.1760215 0.0803674
0.091580935 0.34394535 -0.070153624 0.005657591 0.2083694 -0.37847364 0.26780912 -0.30482426
-0.013953823 -0.090026565 -0.20969586 0.027651763 0.26169115 -0.071430735 -0.2083569 -0.163373

weight f4 [200]
00000000: 2440 7e3f a6ab 853f 8d5f 7b3f 5a41 843f
00000010: 6445 783f 4954 833f d148 823f 3538 863f
00000020: 6ed5 843f 84b6 7e3f e4b1 793f 4379 6f3f
00000030: 1670 793f 5480 7d3f 5c99 803f d601 793f
00000040: ca92 803f 47e1 783f b8e6 7a3f e42f 753f
00000050: 2b87 843f 228a 833f 41b9 803f 6b5f 773f
00000060: 509c 833f 1ff8 793f 55ae 7f3f e567 753f
00000070: 9085 7f3f e8df 803f 8bef 843f cc99 7f3f
00000080: 9e20 7e3f 5fe7 833f 1ad4 7f3f 988a 823f
00000090: 07b9 793f 743b 803f 25cf 843f d8d1 7b3f
000000a0: 157c 7f3f fd1f 843f 6a08 823f efed 863f
000000b0: 51c0 813f 4a45 7d3f 1b72 813f 2526 7b3f
000000c0: 86e0 833f 8e52 7c3f 9638 803f c136 803f
000000d0: b413 7b3f 4b2c 853f 6359 7d3f 0519 753f
000000e0: a7a5 7a3f ea20 813f eee9 7b3f 1b01 7b3f
000000f0: 9f03 803f cdd8 813f 4a1e 753f 6401 813f
00000100: f97e 833f 3eec 873f 4df7 7d3f 5fa4 873f
00000110: 4ea6 7a3f 8a35 7a3f 558e 7a3f 145d 763f
00000120: 9911 7f3f 7798 773f ce6d 803f e02f 803f
00000130: d846 793f 4a01 843f c925 753f d241 7f3f
00000140: e806 803f 7f38 793f 5868 7e3f fa3e 823f
00000150: c23d 803f ee68 813f 3445 7c3f 2982 813f
00000160: 17b3 813f ad7a 803f 0c2f 7d3f 36ea 823f
00000170: 9073 813f 0c16 863f a321 853f 7410 7c3f
00000180: 4f13 7b3f 25c5 7b3f 2b24 803f 0ce5 7e3f
00000190: ec17 7b3f ff2d 803f 6b1e 7f3f e711 7c3f
000001a0: e195 843f 14da 7a3f c581 823f 25bd 7d3f
000001b0: 8a3c 7d3f 486b 843f 7be6 803f e466 7e3f
000001c0: 7365 813f b954 7f3f adff 813f 4556 7a3f
000001d0: 5670 773f 6fdd 793f 4e44 813f 5bc9 7a3f
000001e0: 1b4c 793f 9a46 833f f114 863f be6c 833f
000001f0: aac5 7d3f a1e0 833f e0fd 783f f671 843f
00000200: 9de8 813f 862c 7c3f 2bba 7f3f 068a 833f
00000210: 82f3 7a3f a0f6 823f 1229 863f f89e 813f
00000220: a1d0 803f 22d8 763f 8b66 743f cc5b 813f
00000230: 870d 7f3f a6f9 803f 56b3 7a3f 5128 853f
00000240: 2c0e 7d3f bc9d 7c3f 3476 753f a322 813f
00000250: 94d7 843f 8f15 7d3f 5d68 793f 7294 7e3f
00000260: 2707 803f 9f98 803f 6e9f 7e3f 067f 833f
00000270: 3016 803f a93c 873f e565 793f b245 833f
00000280: 7f30 7a3f 9d6e 813f 0a7b 7d3f 28e4 6b3f
00000290: 37f5 783f 9be4 833f d344 753f a2b0 853f
000002a0: 4b33 843f b904 823f d66e 823f d917 7d3f
000002b0: c0c0 763f 8da4 803f 4e02 773f 0b56 7c3f
000002c0: 7237 7f3f c586 813f cdc3 853f f844 733f
000002d0: 3c77 823f bc04 833f a4c5 843f 9193 823f
000002e0: e393 823f ee46 7b3f e560 823f d88c 7d3f
000002f0: b5dd 893f 7a0f 7e3f 04c5 803f 03dc 833f
00000300: 9757 853f 34ed 793f 5fc1 7d3f 2f59 833f
00000310: 1238 813f 69e9 803f 434a 7c3f 2da6 7b3f
0.9931662 1.0443008 0.98192674 1.0332444 0.9698088 1.0260097 1.0178472 1.0485903
1.0377634 0.99497247 0.97537065 0.93544406 0.97436655 0.9902394 1.0046802 0.97268426
1.0044796 0.97218746 0.980083 0.957762 1.035375 1.027653 1.0056535 0.9662997
1.0282078 0.9764423 0.99875385 0.95861655 0.99813175 1.0068331 1.0385603 0.9984405
0.9926852 1.0304984 0.99933016 1.0198545 0.97547954 1.0018144 1.0375715 0.9836707
0.9979871 1.0322262 1.0158818 1.0541362 1.0136815 0.9893385 1.0112947 0.9810508
1.0302894 0.9856347 1.0017269 1.001671 0.9807694 1.0404142 0.9896452 0.957413
0.97909015 1.008817 0.98403823 0.9804856 1.0001105 1.0144287 0.9574934 1.0078549
1.0273124 1.061897 0.99205476 1.0597037 0.9791001 0.97737944 0.9787343 0.96235776
0.99636227 0.9671702 1.003351 1.001461 0.97373724 1.0312893 0.9576078 0.9970981
1.0002108 0.9735183 0.99377966 1.0175469 1.0018847 1.0110147 0.98543096 1.0117847
1.0132779 1.0037438 0.9889991 1.0227726 1.0113392 1.0475478 1.040089 0.98462605
0.9807634 0.98347694 1.0011038 0.9956825 0.98083377 1.0014037 0.9965579 0.98464817
1.035824 0.9798901 1.0195853 0.99116737 0.989205 1.034524 1.0070337 0.9937575
1.0109085 0.9973865 1.0156151 0.97787887 0.96655786 0.97603506 1.009897 0.97963494
0.9738175 1.0255921 1.0475141 1.026756 0.99129736 1.0302926 0.9726238 1.0347278
1.0149113 0.9850544 0.99893445 1.0276496 0.98027813 1.0231514 1.0481284 1.0126638
1.0063668 0.9642354 0.9546897 1.0106139 0.99630016 1.0076187 0.97929895 1.0402929
0.9884975 0.98678184 0.9588349 1.0088695 1.0378289 0.9886102 0.9742487 0.9944526
1.0002183 1.0046576 0.9946202 1.027314 1.0006771 1.0565387 0.97421104 1.0255644
0.9773025 1.0111881 0.9901587 0.92145014 0.9724917 1.030414 0.9580814 1.0444529
1.0328153 1.0157691 1.0190074 0.98864514 0.96387863 1.0050217 0.9648789 0.9856879
0.9969398 1.0119253 1.0450379 0.9502711 1.0192637 1.023582 1.0372815 1.0201284
1.0201381 0.98155105 1.018582 0.99043036 1.0770785 0.99242365 1.0060124 1.0301517
1.0417355 0.9762757 0.99123186 1.0261592 1.0095236 1.0071231 0.98550814 0.9830044

bias f4 [200]
00000000: a186 6fbc 4aa8 833d d676 13bb d1ae 8b3d
00000010: 5b0e da3a 4c05 2bbd 68b8 fc3c ca42 b63c
00000020: b07e 323d 3b8a 4f3b 6942 febc b6fc 08bb
00000030: 131f f33c 0324 3d3d bbca 78bc d799 05bd
00000040: 6b2c 2fbd 1e6c 52bd 47b0 a53c f045 223d
00000050: cdc6 0b3d 4350 2bbc 6d1e 98bb 46f9 773d
00000060: 463e 073c 4881 4dbc 111f ae3c 6728 84bc
00000070: fd2c 803d b6ac 16bd 1a34 953d d47b bfbb
00000080: 3447 443c 901d 373d 1766 1bbc 5657 e33c
00000090: 9b87 5a3d db8d 53bd 6959 d9bc f4d1 033b
000000a0: 1df9 103a 7af1 f53c 5d54 a83c 5588 9abc
000000b0: b9e2 a63d 3a45 7f3d 7da8 b2bb 238d 9bbc
000000c0: 53dd b63c 3816 033d 0485 9e3a 0ed3 873d
000000d0: e906 91bc 410c 6e3d 347e b93c 2498 32bc
000000e0: 0146 763d 4810 6dbd a645 8a3d 80f0 84bb
000000f0: 33e6 c13c 09d9 fd3c 9f88 45bc 2375 5abc
00000100: 2d1b 053d 295e c6bc dda7 5bbd bce1 e43c
00000110: 76de 53bd 8287 b43c 5355 873c e5e7 763d
00000120: 0976 37bc b495 1abd deff bd3d a2ed d53c
00000130: 7009 72bd 0e4d 4f3a ce2b 153d 2a91 34bb
00000140: 0da9 8abc 1254 eb3c 6cc3 2d3d e9ee 88ba
00000150: 14a8 a23c 225d 5c3b baaf 493c f769 c9bb
00000160: 6261 353d 5058 143d 6954 323c 9354 0a3d
00000170: f6b5 20bd 54da 29bd eea3 613c a61a 453b
00000180: 8a68 8139 4ccd 3a3d 6c97 cc3c c926 7dbd
00000190: 30d0 81bc 6a6e b3bc 7368 173d da7f bf3c
000001a0: cb66 123d adc3 a73d 6013 bdbb 31d7 d3ba
000001b0: eb15 2d3d e636 103d ae6b 9bbc 20e8 4e3d
000001c0: b120 4f3c 894d 6c3b cbf0 6abc 57be d9ba
000001d0: df0d 393d e2df 2e3d c54e 81bc ff08 a8bd
000001e0: d80a 1c3d 8f7f 7c3c fd25 1c3d e3d8 2ebd
000001f0: 4059 12bd ad6b da3c 22d9 303d a730 cdbc
00000200: 2dc3 4bbd 3371 a3bb d04f 093e e77d 163d
00000210: e242 b43d bca9 18bd 2fe9 1cbd a5d9 3cbc
00000220: 69e9 fd3c d2d4 12bd fc9b e43c 12c0 efbb
00000230: 6aa5 073c 4bb2 1ebd 4ef2 36bd 8740 263d
00000240: b29a f53c 1080 9dbc bd47 0bbd c4ab 74bc
00000250: c70f 18bd d8f3 153e 515a 1dbd 0448 553c
00000260: 0662 5abd 093e f43b d657 2abc d120 8dbc
00000270: 4231 273c 5817 c63c 6af7 863d 72fc 843c
00000280: b9a7 4abd 921f 7ebb cb1c 00bc 6f61 3abd
00000290: 273a f2bc 364d 3c3d 3040 3d3d 7584 62bc
000002a0: e081 98bc c3a1 0a3d da03 053d 3cd5 b8bb
000002b0: 5443 0abd 16e8 46bd 7766 c63c 86c2 5a3d
000002c0: 5c39 143d 4536 74bb 9b90 1fbd 6274 9a3c
000002d0: 3430 bd3d 139e 00bc 1304 9bbb be2c 3e3c
000002e0: 37cd 9fbc cafd a53c 5122 c7bd 3b34 413d
000002f0: 0693 cd3c 35af 5fbd 13de 8bbc 28d0 f1bc
00000300: 0717 b8ba 65b7 a3bc 2811 93bc 05cd 42bd
00000310: 59c4 df3c 4467 6f3d d948 893d eb77 243d
-0.0146195 0.06428583 -0.0022501252 0.06820453 0.0016636358 -0.0417531 0.03084965 0.022248644
0.04357785 0.0031668085 -0.031037526 -0.002090258 0.029677903 0.04617692 -0.015185053 -0.032617416
-0.04276697 -0.05137264 0.020225657 0.03961748 0.034125138 -0.010456148 -0.004642299 0.06054046
0.008254593 -0.01254303 0.021255048 -0.016132547 0.06258581 -0.036785804 0.07285328 -0.005843619
0.011979867 0.044705927 -0.009484789 0.027751606 0.05335198 -0.051648956 -0.026531892 0.0020114155
0.0005530285 0.030022372 0.02054804 -0.018863836 0.08148713 0.06232188 -0.0054522143 -0.018988198
0.022322332 0.03200361 0.0012094085 0.06632052 -0.01770349 0.058117155 0.022643186 -0.010900531
0.060125355 -0.057876855 0.06751566 -0.00405699 0.023669338 0.03098728 -0.012056499 -0.013333592
0.03249662 -0.024214821 -0.053626884 0.02793967 -0.051725827 0.022037271 0.016520178 0.060279746
-0.011197575 -0.037740424 0.092773184 0.026114289 -0.05909103 0.00079079054 0.03641873 -0.0027552345
-0.016926313 0.028726611 0.042422697 -0.0010447177 0.019855537 0.0033624847 0.012309963 -0.006146665
0.044282325 0.036217034 0.010884383 0.033772063 -0.03923603 -0.04146798 0.013771994 0.0030075698
0.00024682685 0.045605943 0.024974547 -0.061804567 -0.015846342 -0.021903235 0.036964845 0.023376394
0.035742562 0.08191619 -0.005770132 -0.0016162154 0.04225723 0.035208605 -0.018972244 0.05051434
0.012642072 0.0036056957 -0.014339636 -0.0016612512 0.045179244 0.04269398 -0.01578463 -0.08204841
0.03809628 0.015411272 0.038122166 -0.042687308 -0.035729647 0.026662672 0.043175824 -0.025047613
-0.04974668 -0.0049878596 0.13409352 0.036741164 0.088018194 -0.037271246 -0.03830832 -0.0115265
0.030995088 -0.035847493 0.02790641 -0.0073165977 0.008279184 -0.038744252 -0.044664674 0.04058888
0.029980991 -0.019226104 -0.03400396 -0.01493353 -0.03712442 0.146438 -0.03841621 0.013017658
-0.05331614 0.007453684 -0.010396918 -0.017227562 0.010204615 0.024181053 0.06590159 0.016233657
-0.04947636 -0.0038776142 -0.007819365 -0.045503076 -0.029568745 0.04597207 0.046203792 -0.0138255255
-0.018616617 0.033845674 0.032474376 -0.005640654 -0.033755615 -0.04856118 0.02421878 0.05340817
0.036187515 -0.0037263792 -0.038956266 0.018854324 0.0923771 -0.007850188 -0.0047307103 0.011607347
-0.019507034 0.020262618 -0.09723342 0.04716895 0.02509452 -0.05461045 -0.017073667 -0.029518202
-0.0014044949 -0.01998491 -0.017952517 -0.047558803 0.027315306 0.05844809 0.06703348 0.040153425

running_mean f4 [200]
00000000: 0cf2 333e 2279 b13d 60fc 613e e030 e33e
00000010: dcfb 943e b820 523e 72fa 363e 1711 9e3e
00000020: 95a3 303e 5fdf 0d3e b9a5 523e 6aeb 423e
00000030: c00c ec3d ea99 7a3e c965 7e3e 37fc 4e3e
00000040: 51a9 373e c333 013e 3092 3c3e 3517 d43d
00000050: f606 473e 3b52 933e 7590 483e a276 8f3e
00000060: 0093 983e 5af1 3d3e 0f10 4e3e f328 423e
00000070: 8c1a da3d f38a 663e 66fc f73d 4bd1 4b3e
00000080: 89a5 863e 2237 cc3e ef28 393e 3f8b b83e
00000090: ce2f 673e 74a9 533e 0014 3d3e 1246 873e
000000a0: ef68 203e 0086 443e 3e4e 293e ca29 083e
000000b0: 828d 113e 72cc 163e 3928 533e c393 b63e
000000c0: 37d0 813e cbca 693e bb33 f83d eb36 853e
000000d0: 31a3 833e 89ab 863e 592b d23e bd9a 993e
000000e0: ec04 4a3e 253a b03e e062 563e 0b47 223e
000000f0: b8e8 3d3e 2289 423e bcfd 403e 4fe4 473e
00000100: 5312 c23e 8780 f53d e503 343e 53eb 903e
00000110: aacd b23e e9c1 8c3e 0395 6c3e 7919 9a3e
00000120: 3f76 833e c7ee cc3d 35d4 a13d 7000 283e
00000130: 30f0 aa3e b2f5 003e e0cb ef3e 09a3 a13d
00000140: 028e 4b3e e1fa 4a3e 2d2a 743e 90b5 2d3e
00000150: 9910 9a3e 42e3 953e 8bd2 4e3e 93be 583e
00000160: 5e69 ae3e 5311 c83e 7344 3b3e 6543 173e
00000170: c72f c23e 07b2 833e c048 873e daf1 5e3e
00000180: 4048 543e 46c1 0e3e c19f 5c3e 9e18 453e
00000190: 8d9e 9b3e 98d4 403e 5ea2 ae3e eb21 4f3e
000001a0: 8ddb 313e f681 6e3e 26db 503e b0a7 333e
000001b0: e591 683e 64d4 063e 78ee 7a3e fe20 5b3e
000001c0: cf83 223e c353 163e 598a ff3d 17d6 0e3e
000001d0: a01e 7d3e 2419 1a3e 00b7 dc3d 7114 2f3e
000001e0: a6a9 303e 0b73 383e 583f 453e 6c98 433e
000001f0: 4004 363e 98a7 683e 40f3 8b3e 39f3 903e
00000200: 82b7 383e 369a 403e 6707 973e 53d3 c93e
00000210: fb5d 9a3e f643 a93e 0f55 883e f71d a33e
00000220: 7d80 763e 3221 9b3e f926 723e e3f2 563e
00000230: 2c3b 2b3e dea3 6e3e bc1f e83d fbc4 823e
00000240: e4b9 0d3e a25b 723e 5c40 443e 0ba7 053e
00000250: 5a5d 3d3e e53d 9f3e 0158 683e 4848 733e
00000260: 9251 4a3e 46cf ca3e 9c89 713e 0dda 213e
00000270: 56dc a03e 63fb 793e 3393 973e 8ad7 a13e
00000280: 64be 9a3e 41cf 813e 03ce 373e 4e14 6f3e
00000290: ee51 703e 9107 433e 6bd6 2e3e 83c5 3e3e
000002a0: 443c 243e 511a 1a3e c4a2 763e 4c84 8a3e
000002b0: 65c2 ae3e 662a 9c3e cc1a 013e a9ac 5f3e
000002c0: aa58 373e b2af 993e a041 8e3e 725d 6f3e
000002d0: 6d47 5e3e 5d66 803e 4316 ab3e 804a 403e
000002e0: e8a0 533e 5a3c a43e 7c42 423e 8ad6 373e
000002f0: 014d 2a3e 9341 363e 3617 453e 8dfc 213e
00000300: 4f12 a53e 1686 a53e e781 703e ea96 523e
00000310: b156 d43d 012b 2e3e 0002 e73d 18cf 2e3e
0.17572802 0.086656824 0.2206893 0.44373226 0.29098403 0.20520294 0.17868975 0.30872414
0.17249902 0.1385474 0.2057103 0.19035116 0.11525869 0.24472776 0.24843515 0.202134
0.17935683 0.12617402 0.18415141 0.10355989 0.19436249 0.28773674 0.19586356 0.28020197
0.29799652 0.185491 0.20123313 0.18960933 0.10649595 0.22513942 0.12108688 0.19904058
0.26298168 0.39885813 0.18082021 0.36043736 0.2257683 0.2067011 0.1846466 0.26420647
0.15665029 0.19191742 0.16533753 0.13297191 0.14214137 0.14726427 0.20620812 0.35659608
0.25354168 0.22831266 0.12119242 0.26018462 0.25710443 0.26302746 0.41048697 0.30000868
0.1972844 0.3441936 0.20936155 0.15847413 0.18545806 0.18997625 0.18846792 0.19520687
0.37904605 0.11987405 0.1757961 0.28304538 0.34922534 0.27491692 0.23103718 0.3009756
0.25676152 0.10006481 0.079018034 0.16406417 0.33386374 0.12593725 0.46835232 0.078924246
0.1987839 0.19822265 0.23844214 0.16963792 0.30090788 0.29274946 0.20197503 0.21166448
0.34064764 0.39075717 0.1828783 0.14771803 0.37927076 0.25721762 0.2642269 0.21771947
0.20730686 0.13940915 0.21545316 0.19247672 0.30394402 0.18831098 0.3410825 0.20227782
0.17368908 0.23291764 0.20396098 0.17544436 0.22711904 0.13166958 0.24505031 0.21399304
0.15870593 0.1468039 0.124775596 0.13948856 0.24718714 0.15048653 0.10777092 0.17097642
0.17252216 0.18012635 0.19262445 0.19101113 0.17775059 0.22720182 0.27334023 0.28310564
0.18038753 0.18808827 0.29497835 0.3941904 0.30149826 0.33059663 0.26627395 0.318588
0.24072452 0.30298764 0.2364768 0.20991091 0.16721791 0.23304698 0.11334178 0.2554091
0.13840443 0.23667768 0.19165176 0.13052003 0.18492642 0.3110191 0.22689821 0.23758042
0.19757679 0.39611262 0.2358765 0.15805836 0.31418103 0.24412303 0.29604492 0.31609756
0.30223382 0.25353435 0.17949681 0.2334759 0.23468754 0.19045855 0.17073981 0.18630032
0.16038615 0.15049101 0.24085528 0.2705406 0.34132686 0.30501097 0.12607878 0.21843208
0.17904916 0.30016857 0.27784443 0.2337549 0.21706934 0.25078097 0.33415422 0.1877842
0.2066685 0.32077295 0.18970674 0.17952934 0.16630937 0.17798452 0.19247136 0.15818997
0.3224053 0.32328862 0.23487054 0.20565382 0.103680976 0.17008592 0.11279678 0.17071187

running_var f4 [200]
00000000: 060d c83d e955 ba3c 0a7f 153e 9602 263e
00000010: 66b6 853e 458e 7e3d 82bc e13d 18c3 fe3d
00000020: b827 bf3d 88c1 d53d f811 bd3d 35f1 5c3e
00000030: a0fc 3a3d 981b 2d3e 35f4 cd3d acd9 e83d
00000040: fe82 033e 3e0a 643d 3da5 f43d db7c 883d
00000050: e714 cb3d 240b 483e a879 d73d 2e83 6c3e
00000060: f52a ee3d e0f5 613d c53c 6c3d 1282 b33d
00000070: 2f0f ac3d 9193 c13d 9a84 0f3d 5588 1a3e
00000080: 8d98 653e 8442 2a3e 762a 833d d9bf d13e
00000090: 2f58 f03d a105 a03d 01ca 8d3d 1542 513e
000000a0: 1567 6b3d d3ca 253d 568f 9b3d 6f51 083d
000000b0: 99c3 6a3d 24cf 0a3d 2a1b a73d 7046 ab3e
000000c0: 514f 1d3e 8980 c83d 8228 5a3d e65a 3f3e
000000d0: bedf 1c3e 6927 6a3e 3a1e 263e 44ad a03d
000000e0: 98f7 083e d9d1 e93d 39e0 f93d 0224 c03d
000000f0: e186 a43d ddc3 853d f5e0 013e 1728 0b3e
00000100: 5093 343e 533c 473d 49ba 833d ce55 f23d
00000110: 4f1b c23e 7e62 ce3d 19d4 ae3d d68f 663e
00000120: 4d05 9d3d 0308 c73c d6f8 923c c7a5 e23d
00000130: c8ef b53e fe54 9f3d 5da5 343f 2820 cf3c
00000140: fdba a13d d6c4 d23d 1548 193e 7e92 903d
00000150: f2c7 683e 2c57 233e e24e 3a3e baca f13d
00000160: e4cd d33d b4fe fb3e 9945 ff3c 9fce 8d3d
00000170: 3892 dc3e 81e7 583e daac 3a3e 4d8f 933d
00000180: badc c03d c09f c63d 62ae d23d 0c74 8a3d
00000190: eb39 903e 1f54 703d f1d6 213e 195e f93d
000001a0: 0029 5a3d ce86 143e 05f7 9d3d abcd b53d
000001b0: 4369 1e3e 9819 553d 871b 293e 589b 5e3e
000001c0: 2200 a23d 2b51 a93d a1c4 753d 7c5c 6e3d
000001d0: 2efb a53d 3315 9d3d 2ac2 0e3d dce1 983d
000001e0: 25c3 983d c53d 0d3d 9744 ea3d c81d 7c3d
000001f0: 4755 6e3d 0105 d73d ba35 203e 315f ea3d
00000200: 2174 b03d 9e27 d33d c084 a13d a112 f03e
00000210: 11b9 7b3e 4382 333e db38 fd3d adb4 a53e
00000220: f064 db3d 8b6c 873e 5700 053e 07d1 e43d
00000230: abe4 cd3d 5ba7 683d 5b17 a73c eb2b 693e
00000240: 9ca7 333d 1298 e53d 3207 fb3d 09dc 753d
00000250: 3970 933d 7fd8 563e 59e5 cf3d 48a5 793e
00000260: 7a4d ac3d a996 ff3e c682 c13d cb13 a03d
00000270: 72be 963e 178e 033e cac1 663e 408f 9b3e
00000280: 72ea 7f3e 4923 423e 416f 9f3d 423d 953d
00000290: 0ea4 373e f2ac 923d e5de ff3d 5a90 c23d
000002a0: e425 e13d b880 2f3e fc5b f13d 8d14 ae3d
000002b0: 4832 c33e 292c 6e3e 742a 1a3d f486 ea3d
000002c0: 5b61 ad3d ae03 2a3e 7a96 c63d 5a31 ed3d
000002d0: 653f af3d 1199 ea3d 9b48 f23d ede2 b83d
000002e0: c726 a03d 910b a13e ba29 7e3d 4fcc d43d
000002f0: 8c9a 5b3d 1328 ab3d 172e a73d f38c db3d
00000300: 9d2a 053e d752 183e bfeb a03d 058b 233e
00000310: f5e0 e73c c478 013e 3069 053d ce62 973d
0.09768109 0.022746043 0.14599243 0.16211924 0.2611572 0.062147398 0.11022283 0.12439555
0.093337476 0.10437304 0.09231943 0.21576388 0.04565108 0.16905057 0.100563444 0.113696426
0.12842938 0.05567383 0.11945579 0.06664439 0.09916096 0.195355 0.10521251 0.23096916
0.11629287 0.055166125 0.05767514 0.08765043 0.084013335 0.09451974 0.035038568 0.15091069
0.22421475 0.16626936 0.06404583 0.4096668 0.1173557 0.07813574 0.06923295 0.20435365
0.057471354 0.04047663 0.075956985 0.033280786 0.057315443 0.03388895 0.08159478 0.33452177
0.15362288 0.09790141 0.053261288 0.18687019 0.15319726 0.22866596 0.16222468 0.07845548
0.133757 0.114169784 0.1220097 0.09381868 0.080335386 0.065314986 0.1268347 0.13589512
0.1763432 0.048641514 0.064320154 0.11832772 0.3791146 0.1007738 0.08536548 0.22515807
0.07667027 0.024295812 0.01794092 0.11066776 0.355345 0.07779883 0.70564824 0.025283888
0.07896993 0.1029145 0.14968903 0.07059191 0.22732523 0.15951222 0.18194154 0.11806245
0.10342005 0.4921776 0.031161116 0.069241755 0.43080306 0.21182062 0.1823 0.07205067
0.094171 0.09698439 0.10287167 0.067604154 0.28169188 0.058673974 0.1580465 0.12176151
0.053261757 0.14504549 0.07713131 0.08877119 0.15469842 0.05202636 0.16514407 0.21738946
0.079101816 0.08267435 0.060001973 0.05819367 0.08104549 0.07670059 0.034853138 0.07464954
0.07459096 0.034482736 0.11438864 0.06155184 0.058186796 0.10499001 0.15645495 0.114439376
0.086159 0.10310291 0.07886648 0.46889213 0.24582316 0.1753016 0.1236436 0.32364407
0.10712612 0.2645 0.12988411 0.11172681 0.100533806 0.056800228 0.020396879 0.2277066
0.043861017 0.11210646 0.12257232 0.060024295 0.07199139 0.20981024 0.101511665 0.24379456
0.08413215 0.49919632 0.09448771 0.07816275 0.29442173 0.12847172 0.22534862 0.3038273
0.24991778 0.18958773 0.07784892 0.072870746 0.17933676 0.07161893 0.12493686 0.09500189
0.10993555 0.17138946 0.11785123 0.085000135 0.381243 0.23259033 0.037638143 0.114515215
0.08465835 0.16602966 0.0969667 0.11581679 0.085570134 0.11454976 0.11830255 0.09027658
0.07819896 0.31454137 0.062051512 0.10390531 0.053614184 0.08357253 0.08163088 0.10720243
0.13004537 0.14875351 0.07857465 0.15971 0.02830551 0.12643725 0.032571018 0.073918924

weight f4 [100, 200]
00000000: 52b8 2ebd 76ef 8dbd 25de c1bd 53e9 9c3a
00000010: 8b17 f9bc 9650 91bc 5f91 b13c d870 bfbc
00000020: 71de 8fbb fa22 98bd f046 a2bb 51e2 42bd
00000030: 46a5 433d 9223 423d 45f8 2b3d 2ab2 e1bc
00000040: e2c6 3e3d e4b2 a1bd 8e4c a6bd 7990 9ebb
00000050: e1c1 06bc 7382 cebd 4c87 80bd 79a8 5bbd
00000060: 8bed ccbd 1401 753c 1965 1d3d aec2 e43c
00000070: 0a64 86bd 9d1a 9cbd 30e4 bcbd e59a 2dbc
00000080: e134 783c 85eb dabc b165 8ebd 8958 9dbd
00000090: 97c9 32bd 240d a3bd 1252 a8bd 0db2 173d
000000a0: 55d0 1abd dc9d 0bbd 057d 43bd 01be 8ebd
000000b0: 6e33 b6bd 8ca7 853c d02f 5cbd c35e 03bd
000000c0: f0f3 0fbc 67f1 77bd 72f5 833d deb3 1e3d
000000d0: 35b9 543d 8853 45bd 43cd 923c 3ba5 c3bd
000000e0: 42a3 0bbd 3445 ecbc 9aee 6dbd 4687 813c
000000f0: 75a6 3ebd 266a 0ebd 1c85 40bd 2a81 0cbd
00000100: f2b7 9cbc f9c9 bfbd c45f 4e3d 44de 9e3c
00000110: d753 a73c 6ca8 cfbc 530c e0bb 780c 583c
00000120: ad54 803d d4b3 283d e9a6 39bd 59ee 68bd
00000130: 5979 dbbd 9f18 13bd fe22 823c 2e3e bb3c
00000140: 783d 173d 39c2 823d c04e f3bc 33cf fdbc
00000150: 430c 243d 3a4c 7b3d 7436 c23c 5ef3 bdbd
00000160: cd8b 413d 7f06 55bd 40d2 333d 4b8b 033d
00000170: 9d7a 6c3c b7a3 acbd 8ad6 1cbd 2a04 a73c
00000180: f517 20bd 2547 a0bd ee1e 623d 7dc1 03bd
00000190: 11fb 403b 7f3b 8bbd 4620 52bb 0b9d 70bd
000001a0: 8ba3 cbbc adca 49bd 950f b2bc 7d27 ba3c
000001b0: 5e6d 05bd cc10 1d3d 1399 8c3c 8f6e 18bd
000001c0: a3b5 98bd 3e9c 85bd df4a fb3b 39bc bdbd
000001d0: ee03 f3bb 513a a0ba 2fa1 73bb aa56 a2bc
000001e0: 3dcd 3a3d 128f f93c 36ac ffbb 3326 bbbc
000001f0: 7c35 093d cd29 943d 32dd a8bd 4c8e 7dbc
00000200: 0b25 c1bc 3fdc 69bd 2a6c 553d 93dd f3bc
00000210: 5bb7 2b3d 0e3d 0dbc 52f6 07bd 786a 92bd
00000220: d769 28bd 9669 2ebb 5e20 a53c 0741 f93b
00000230: c7e9 383d 32b7 1fbd ffde 1fbc b1ed b73c
00000240: 8969 99bc c6c8 233d 7e35 1fbc 676e 96bd
00000250: 9a14 ccbd 04f6 6e3a e491 04bd 88c6 e3bb
00000260: 05d1 383d 269c 12bd 0b4c 1dbd b04f 41bc
00000270: 78a3 89bd 6947 9fbd 7632 94bd 5e04 b6bd
00000280: 6c04 85bc d562 b3bc ae95 43bc 9a91 a0bd
00000290: a989 af3c 40f3 56bd 4b9c 3abc 2f6f 83bd
000002a0: 60b1 8abd edad bbbc f785 cabd 7512 29bd
000002b0: c8e6 283c 275a 77bd c7aa 03bd 76d0 01bd
000002c0: 8f25 063d afe9 acbd a66f d3bb 02d0 a63c
000002d0: 6d89 04bc 199e 8e3c 77ac 6abd aebe 153c
000002e0: 91cf e53c c4b6 70bd 00b6 68bd 3954 b23c
000002f0: 0dda 8e3c 23bd 1bbd 5e8b e33c 9acd af3c
00000300: 8108 45bd a00d 6abc 84e7 8d3d 6f07 1dbd
00000310: e0ad e3bd 0675 03bd b976 573b fb4d 53bd
00000320: 3802 dabc ed4c a63d 437d 623d b367 ae3c
00000330: 6599 5fbc fe59 643a 7a52 f63b 2014 c93c
00000340: 0497 13bd e459 333d 5080 a83c c255 41bc
00000350: 0cd0 a93b 0681 1b3d a6a6 b5bd d839 863d
00000360: 2e88 3f3d 3bc2 18bc 7175 45bd bfa9 7d3c
00000370: 5576 f13c 923f 7cbc 17c6 9ebc 119d cd3d
00000380: ce4a 863d 3d76 9c3c 1255 953c 0952 253d
00000390: 2df6 de3c 095a a63d ce1f f6bb 2619 a8bc
000003a0: a63c 3d3d 830d c6bc 4231 e8bc c02c 34bd
000003b0: 6003 ac3d 8bf3 893d ab22 a53c 2668 183d
000003c0: cf5e f23c 362d e0bc f55c fabc fdc1 66bd
000003d0: 3ef9 a13d 2822 d43b 5966 da39 7cae f43c
000003e0: bec6 633b 914b 49bd 61cb 063c e806 443d
000003f0: c5a5 36bd 6880 8dbc 3fc5 603d 6b95 af3d
-0.04265625 -0.06930439 -0.09466199 0.0011971392 -0.030406734 -0.017738622 0.021675764 -0.023369238
-0.0043905308 -0.07428546 -0.004952304 -0.047579113 0.04776504 0.047397204 0.041984815 -0.027550776
0.04657639 -0.07895449 -0.081200704 -0.004839 -0.008224935 -0.10083475 -0.06275806 -0.053627465
-0.10006245 0.01495387 0.038426492 0.027924862 -0.0656205 -0.076222636 -0.09223211 -0.010596012
0.015149326 -0.026723633 -0.0695299 -0.07682902 -0.043649282 -0.07961491 -0.08218779 0.037035037
-0.037796337 -0.034086093 -0.04772665 -0.06969834 -0.08896528 0.016315244 -0.053756535 -0.032072794
-0.008786187 -0.060532954 0.06443299 0.038745753 0.05193444 -0.048175365 0.017920142 -0.095529996
-0.03409124 -0.028841592 -0.058088876 0.015811574 -0.046545465 -0.0347692 -0.047001943 -0.034302868
-0.01913068 -0.09364695 0.050384298 0.019393094 0.02042572 -0.025348864 -0.0068374067 0.0131865665
0.062661506 0.041187122 -0.045325194 -0.05686793 -0.107165046 -0.035912152 0.015885826 0.022856798
0.036923856 0.06384701 -0.029700637 -0.03098259 0.040050756 0.061351992 0.023707606 -0.09274934
0.047252465 -0.05200815 0.043901682 0.032115262 0.01443353 -0.08429664 -0.038290538 0.020387728
-0.039085347 -0.0782607 0.055205278 -0.032166947 0.0029446522 -0.06798457 -0.0032062693 -0.058743518
-0.024858257 -0.049265552 -0.021735946 0.022723908 -0.032575004 0.038346097 0.017162835 -0.037214812
-0.074565195 -0.065239415 0.0076688374 -0.09264416 -0.00741624 -0.0012224411 -0.003717493 -0.019816715
0.045605887 0.030463729 -0.0078025116 -0.022845363 0.033498272 0.07234535 -0.08245315 -0.015475821
-0.023577234 -0.05709481 0.052105106 -0.02976874 0.04192291 -0.008620514 -0.033193894 -0.071492136
-0.04111656 -0.0026613227 0.020157035 0.007606629 0.045144822 -0.038993068 -0.009757756 0.022452207
-0.01872708 0.039986394 -0.009717343 -0.07345276 -0.09964867 0.00091156387 -0.032365695 -0.006951157
0.04512121 -0.035793446 -0.0384026 -0.011798784 -0.06720632 -0.07777292 -0.07236187 -0.08887552
-0.01623746 -0.021897713 -0.011937542 -0.07840271 0.021427946 -0.052478075 -0.011389802 -0.06417691
-0.06772113 -0.022910083 -0.09888833 -0.041277368 0.010308929 -0.06038871 -0.032145288 -0.031692944
0.032750662 -0.08443009 -0.0064525185 0.020362858 -0.0080894055 0.017409371 -0.05729338 0.0091397
0.028053077 -0.05876805 -0.056814194 0.021768676 0.01743796 -0.03802217 0.027776416 0.021460343
-0.048103813 -0.014285475 0.06928924 -0.038337167 -0.111171484 -0.032094024 0.003287716 -0.05158804
-0.026612386 0.08120141 0.05529524 0.021289682 -0.013647412 0.00087109196 0.007517156 0.02454573
-0.03603269 0.0437869 0.020568997 -0.011800231 0.005182272 0.037964843 -0.08869676 0.065540016
0.04676073 -0.009323652 -0.048207704 0.015482365 0.02947537 -0.015396016 -0.019381566 0.10039724
0.065572366 0.01909935 0.018229041 0.040361438 0.027216995 0.081226416 -0.0075111156 -0.020519804
0.046200417 -0.024176365 -0.0283438 -0.04398799 0.08399081 0.06735905 0.020158133 0.0372087
0.029586224 -0.027365308 -0.030561903 -0.056337345 0.07908867 0.0064737983 0.00041656455 0.029868357
0.003475591 -0.04914433 0.0082272 0.04785815 -0.044591684 -0.017273143 0.05487561 0.08573421

weight f4 [100]
00000000: 1681 7b3f 26b1 723f d864 763f 232f 743f
00000010: 254a 763f a07d 793f 7d05 7b3f 3603 7d3f
00000020: 9adf 713f 0f5f 643f 8e46 7b3f 76f6 683f
00000030: a420 763f ebb4 7a3f 34a0 6f3f 5ab3 7e3f
00000040: ea89 763f 5013 763f 6b57 753f cd9a 6e3f
00000050: a28c 633f 5394 823f 81d2 763f 1134 773f
00000060: db3a 783f e08c 783f bf8a 6e3f f36e 763f
00000070: 97a1 823f 3430 7b3f c9f5 783f 6f98 753f
00000080: 6dd6 7b3f dad0 6e3f ba4b 7b3f c591 793f
00000090: 06cc 783f 842f 783f 6fad 713f 9b96 763f
000000a0: 7e37 793f ef87 773f 97a3 7a3f 61b8 7d3f
000000b0: 1a39 7c3f 69b5 7a3f 61a7 7d3f de31 803f
000000c0: c1ba 6c3f ea7d 713f aed0 793f cbc5 713f
000000d0: 2393 733f 4bec 783f afbf 753f 726a 793f
000000e0: b069 803f a4c0 7c3f b62c 703f b995 753f
000000f0: c8e6 763f e3be 773f e32b 7e3f a0a9 803f
00000100: 8527 713f 31ad 6d3f 1837 7f3f d90e 783f
00000110: 6635 783f 4a0a 733f 2b9d 7c3f 1464 6f3f
00000120: 251b 763f 7f28 633f a596 763f 7a60 6a3f
00000130: c62a 7a3f df1b 7b3f 9042 603f 4d3f 723f
00000140: 091f 763f dd11 773f 2fa4 763f 6ba5 733f
00000150: 0ea2 703f 3b16 783f 81d9 743f 5595 7c3f
00000160: 2ec6 7c3f 78ab 793f b6d9 753f 0042 783f
00000170: d6ec 743f 77b3 583f 9059 743f cadc 763f
00000180: 8912 7f3f ee40 6d3f 9147 5a3f cb7b 763f
0.98243845 0.9480156 0.96247625 0.95384425 0.96206886 0.97457314 0.9805525 0.98833025
0.94481814 0.8920755 0.9815453 0.9100107 0.96143556 0.9793231 0.93603826 0.9949242
0.9630419 0.9612322 0.95836514 0.9320496 0.88886464 1.0201515 0.96414953 0.9656382
0.96964806 0.9708996 0.9318046 0.96263045 1.0205563 0.9812043 0.9725004 0.9593572
0.9837406 0.9328743 0.98162425 0.9748805 0.97186315 0.96947503 0.94405264 0.96323556
0.973503 0.96691793 0.9790587 0.99109465 0.9852463 0.9793306 0.99083525 1.0015218
0.92472464 0.94332755 0.97584045 0.94442433 0.9514639 0.97235554 0.9599561 0.9742805
1.0032253 0.98731446 0.93818223 0.95931584 0.96445894 0.96775645 0.99285716 1.0051765
0.94200927 0.92842394 0.9969344 0.96897656 0.9695648 0.94937575 0.9867732 0.9351208
0.9613517 0.8873367 0.96323615 0.9155346 0.9772152 0.980894 0.87601566 0.9462784
0.96141106 0.9651163 0.96344274 0.9517428 0.93997276 0.9690892 0.95644385 0.9866536
0.987399 0.97527266 0.96035326 0.9697571 0.9567388 0.8464884 0.9544916 0.9643065
0.9963766 0.926772 0.8526545 0.96282643

bias f4 [100]
00000000: 6867 c1bb d3ea f8bb bc9d e73b d5cb b7bb
00000010: 6a6e b4bb ba0b 13bc 7442 783b 478c 81bc
00000020: d863 113d be7c a1bd c844 0abc 5e89 c9bb
00000030: e64c eebb 23d1 bc3b 6a4b 613a 3604 1ebd
00000040: 8025 193b 9b83 d5ba f59f e8ba 2cfa 8b3d
00000050: 2a9e 00bd 9e56 2f3c 5b77 64bc 55e2 373c
00000060: b1ac 263b 7806 9936 5cfc d73c 0c47 293c
00000070: 2139 07bb 08d6 7a3c 6d58 cb3b 5ae3 7fb8
00000080: b3a5 53bc 6c77 1cbc c58e bcbb 05d4 c6bb
00000090: 8e34 5dbc a147 2cbb 84ec eebc 4f4b 85bc
000000a0: 83bf 4d3b 97f5 273c db7e a0bb 7475 f7bb
000000b0: 71b9 0bbb 4a78 e8bb 5bed 0cbc 8f16 1ebc
000000c0: 0248 913d 7ff5 0e3c 5ab1 adbb 3bdb 9bbc
000000d0: 01f1 343c a321 c0ba db2c 5f3c 555a 283c
000000e0: 40b8 15ba e943 ac39 e431 79bc 98b5 90bd
000000f0: 0bd0 f6bb c791 763c 6aea 703b b28c 19bc
00000100: 755f 743b 4b08 2fbc 738a e9bc e927 053c
00000110: 9578 913a 1a83 4cbc 17c4 103c 77d9 113c
00000120: 203f dbbc e016 b53d 54e5 7d3c 9b76 89bc
00000130: 9d62 df3b 515f 64bc 84c8 40bc 3091 c93b
00000140: 8e23 943b 4b18 11bc 9adb d8bb a0f0 cb3a
00000150: 52b2 8fbc cae8 853c 388f 95bb 0dea 0cbc
00000160: ee6a 25bc 9371 c3bb de06 243b 9e97 32bc
00000170: dc42 3f3b 0fb9 cfbc bf8c bbbc 9dcc eebb
00000180: 6920 833c acc4 c4bb 435b 85bd 1027 6d3c
-0.0059022196 -0.0075963526 0.007068364 -0.0056090155 -0.0055063264 -0.008974964 0.0037881406 -0.01581396
0.03549561 -0.07885121 -0.00843925 -0.0061504086 -0.0072723506 0.0057622357 0.00085943064 -0.038578235
0.00233683 -0.0016289832 -0.0017747866 0.06834826 -0.031400837 0.0107018035 -0.013944472 0.011223395
0.0025432522 4.5605084e-06 0.026365452 0.01033188 -0.0020633417 0.015309818 0.0062056095 -6.1008475e-05
-0.012917924 -0.009549957 -0.005754324 -0.006067755 -0.0135013 -0.0026287811 -0.029165514 -0.016271261
0.0031394667 0.010251424 -0.004897935 -0.0075518433 -0.0021320248 -0.0070944177 -0.008601512 -0.009648933
0.070938125 0.008725523 -0.005300683 -0.019025436 0.011043788 -0.0014658462 0.013621534 0.010275443
-0.00057113543 0.00032856993 -0.015209649 -0.07065886 -0.007532125 0.015049404 0.0036760815 -0.009371923
0.0037288342 -0.01068313 -0.0285084 0.008127191 0.0011098558 -0.012482429 0.008835814 0.008901945
-0.026763499 0.08842254 0.015496571 -0.016780188 0.0068171755 -0.013938741 -0.011766557 0.006151341
0.00452084 -0.00885589 -0.0066179754 0.0015559383 -0.017541084 0.016346354 -0.004564192 -0.008600724
-0.010096295 -0.005964467 0.0025028507 -0.010900406 0.0029184138 -0.025356798 -0.022894261 -0.0072875754
0.016006665 -0.0060048904 -0.065115474 0.014474645

running_mean f4 [100]
00000000: 7605 303f b272 f73e 35a1 803e c610 273f
00000010: 6f52 103f 5e77 133f 084c 093f c292 273f
00000020: ed16 0e3f e9a1 5d3f 49d2 f83e 9cc7 343f
00000030: 4360 e43e 105e b03e c4f7 283f 391b f23e
00000040: 5292 563f b30a 313f b2ee e93e a02a 623f
00000050: a13f 3a3f 2bfe 0a3f 7c9d 8e3e 84e7 3a3f
00000060: 1f09 c83e 8077 f23e 51c3 2c3f d0d3 133f
00000070: e435 e93e c44d ec3e bf37 543f 342c 0d3f
00000080: 1793 053f 8032 053f c0da 0e3f 9dfe 663f
00000090: f99d 013f 5478 263f 5362 383f fc86 b63e
000000a0: 0296 373f bc15 0f3f 122a 013f c997 0d3f
000000b0: 92ba 2f3f 30a7 093f 095e 2e3f 6c31 d13e
000000c0: 14d9 763f 493d fe3e 4a57 303f 0c5e fe3e
000000d0: c616 213f 94a8 533f 2811 1d3f 9020 0c3f
000000e0: 6273 213f 8784 8b3e e128 e83e f1cc 513f
000000f0: 9ab7 153f ec64 193f d437 123f 66ea 233f
00000100: 24ae 043f 77c8 b23e 7839 623f 6362 423f
00000110: 7d4c fa3e 3657 0d3f bcfb 273f fcd3 013f
00000120: 8831 1c3f bf75 a03f 1c36 223f 37d5 2d3f
00000130: 7a75 fa3e 8fe1 213f f977 853f 035a 3e3f
00000140: 0249 d13e 33c2 803f c4e7 1e3f ae32 0e3f
00000150: abd1 283f d43b cb3e 75a0 143f fcc1 013f
00000160: 022d fe3e f2db 103f f423 3f3f 7c14 033f
00000170: 2a47 063f 7f04 563f fece 153f db5a 073f
00000180: 409f 043f 4472 d63e 8941 163f 41c0 303f
0.6875833 0.48329693 0.2512299 0.6525997 0.56375784 0.57604015 0.5363164 0.6545831
0.5550373 0.8657518 0.48597935 0.7061708 0.44604692 0.34446764 0.6600306 0.47286394
0.8381702 0.6915695 0.45689923 0.8834629 0.7275334 0.5429408 0.27854526 0.73009515
0.3906946 0.47356796 0.6748553 0.57745075 0.45548928 0.4615308 0.8289756 0.55145574
0.52177566 0.5203018 0.55802536 0.9023226 0.5063167 0.65027356 0.7202503 0.3564986
0.7171327 0.5589254 0.5045482 0.5530973 0.6864406 0.5377073 0.68112236 0.40858018
0.96424985 0.49656132 0.6888319 0.49681127 0.62925375 0.82679105 0.61354303 0.54737186
0.63066685 0.27249548 0.45343688 0.8195334 0.5848328 0.5991962 0.57116437 0.6402954
0.5182822 0.34918568 0.8836894 0.75931376 0.4888648 0.552112 0.6561849 0.5071409
0.6101308 1.2535933 0.63363814 0.67903465 0.48917753 0.632348 1.0427238 0.74356097
0.40876013 1.0059265 0.62072396 0.5554608 0.6594493 0.39694083 0.5805734 0.5068662
0.49643713 0.5658561 0.74664235 0.5120313 0.5245234 0.8360061 0.5851897 0.5287301
0.51805496 0.41884053 0.5869375 0.69043356

running_var f4 [100]
00000000: df12 f43e daba 973f 6ac2 863e e122 183f
00000010: 4532 0d3f eea7 563f 9a6a 233f 6cb6 1b3f
00000020: 0550 933f e7eb da3f 7bb5 c73e 61cc a13f
00000030: b579 f43e 5dfd fa3e 418e 5e3f 749e 093f
00000040: b738 0740 ed70 9b3f 033c e53e 579c fc3f
00000050: 0084 683f 9cf0 333f 30af 753e 4d4a 5d3f
00000060: 4ef0 203f 7f16 663f f49a b03f 6914 6a3f
00000070: f668 cf3e dd19 1e3f bd2e 2440 3bb4 de3e
00000080: a34f 853f 8d88 143f 041c 8e3f 87ad 0240
00000090: 98b8 3c3f c3f8 923f 0702 403f bd72 873e
000000a0: efe8 453f 2732 3e3f 8d13 153f e008 f43e
000000b0: b3ba 813f ef64 283f 0366 373f 1ce2 993e
000000c0: 0d0b 5b40 4948 463f c413 413f a291 853f
000000d0: 5f78 603f ff84 1540 88fd b43f cf9e 403f
000000e0: bde6 a73f 91b3 1a3e d881 163f 1cbe 7440
000000f0: bd77 813f b1ad 433f 920f cb3e 9869 963f
00000100: cd2d 5d3f 8ef1 903e b0d2 793f b4f5 943f
00000110: a0fa b43e 41a2 843f 0b05 923f 626e 243f
00000120: 17d7 673f 1081 8c40 61b7 a73f fd7c 633f
00000130: a615 943f 9464 473f e985 4640 1bf8 b53f
00000140: 05ca ec3e 5cf7 5540 90cb 3e3f 3d98 593f
00000150: 8658 be3f 5ee8 9d3e 93b3 183f 1b34 2b3f
00000160: 359c 763f e6a8 4b3f a88e c73f 5a40 df3e
00000170: 9aa7 413f 1764 1040 165a 103f 88e9 683f
00000180: 089b 4a3f ed19 653f 363d ea3f 6645 303f
0.47670648 1.1853898 0.263202 0.5942822 0.5515483 0.8384999 0.63834536 0.6082523
1.1508795 1.7103242 0.39005646 1.2640496 0.47749105 0.49021426 0.8693581 0.53757405
2.1128366 1.2143837 0.44772348 1.9735211 0.90826416 0.70289016 0.2399261 0.864415
0.62866676 0.89878076 1.3797288 0.91437393 0.40509766 0.61758214 2.5653527 0.4349688
1.0414928 0.5802086 1.11023 2.0418413 0.7371917 1.1482166 0.75003093 0.26454726
0.77308553 0.74295276 0.5823296 0.4766302 1.0135101 0.6577901 0.7164003 0.3005532
3.4225495 0.7745405 0.75420785 1.0435069 0.8768367 2.3362424 1.4139872 0.7524232
1.3117291 0.15107562 0.58791876 3.8241034 1.0114666 0.7643691 0.39660317 1.1750975
0.8639801 0.28309292 0.9758711 1.1637483 0.35347462 1.0362016 1.1407789 0.6423093
0.90562576 4.3907547 1.3102838 0.8886259 1.1569107 0.77887845 3.1019232 1.4216341
0.4624788 3.3432226 0.7452936 0.8499792 1.4870765 0.30841345 0.5964901 0.6687638
0.96332103 0.79554594 1.559041 0.43603784 0.75646365 2.256109 0.5638746 0.9098134
0.7914281 0.89492685 1.829993 0.68855894

weight f4 [1, 100]
00000000: d07c 823d 0fde b3bb fee4 88bd 86a5 1fbc
00000010: e05f b13c 2328 9d3c f76f 74bd 3121 48bd
00000020: 5e17 9bba 2f49 25bc d95f 24bd abe1 f1bb
00000030: 1f71 053c a811 8fbd b120 12bd 5c4b 373d
00000040: 6f6a 61bc 8253 3f3d fe18 00bd 7a3f 283c
00000050: feec e639 0389 463d 9366 1fbd 9763 7f3c
00000060: 7417 da3c c8d1 96bd 3e5a 9cbb 1404 7dbd
00000070: 3fe9 c1bd c3e4 9fbc 1aae 643d 9392 2f3d
00000080: 4306 643d 793f 34bc 491a 2dbd dada 23bd
00000090: 1888 50bd b57d 003d 2f90 66bc 3990 8ebc
000000a0: 3856 063d e784 f9bc 5963 e4bc 1e5d b63c
000000b0: 3ea2 363d f531 aabd 9a03 0c3d dc37 13bd
000000c0: 7a04 49bc 3859 733b 02f4 7bbd de4f 823b
000000d0: a6f7 14bd e444 443c 216b 22bd 8a81 8bbd
000000e0: 8d0c 4d3d 6409 a3bd 8aed 203c a88a 263d
000000f0: b14d 7c3d df01 33bb 6676 373d 0013 203d
00000100: 0cec f83c a883 d9bc 6f01 eb3c e8e6 27bd
00000110: 752e 003d 3117 403d f6a6 5abd 0162 d7bc
00000120: 9840 ecba 7ea5 a5ba 0507 333c bf58 003c
00000130: 8473 1e3d e97a 93bc 5ea0 7dba 828c 7cbc
00000140: a453 973c 1b63 193c 8f85 433d dcbc 0b3d
00000150: b399 bdbb f62f 99bc e991 5ebc 5a40 22bd
00000160: 4c5c 8e3d 032d 45bd 29ec 743d fd64 a1bc
00000170: 393e 97bc 5922 0fbb 1617 35bc 156c 17bd
00000180: 74ba 0ebd 2162 60bc 7e91 99b9 6d90 803d
0.06371462 -0.005489118 -0.06684302 -0.009744054 0.021652162 0.019184178 -0.05967709 -0.04885978
-0.0011832525 -0.010088249 -0.04013047 -0.007381638 0.008144646 -0.069857895 -0.03567571 0.044749603
-0.013758286 0.0467105 -0.031273834 0.01026904 0.00044045591 0.04847051 -0.03891618 0.015587709
0.026622511 -0.07364231 -0.0047715 -0.061771467 -0.09468316 -0.019518262 0.0558301 0.042864393
0.055670034 -0.011001461 -0.042261396 -0.040003635 -0.05091104 0.031369884 -0.014072462 -0.017402755
0.03279707 -0.03045888 -0.027879404 0.022261199 0.04458832 -0.0831031 0.034183122 -0.035941944
-0.012269134 0.0037132036 -0.061512 0.003976806 -0.03636899 0.011979315 -0.039652947 -0.06811817
0.050060797 -0.079607755 0.009822259 0.040659577 0.06159753 -0.0027314348 0.044790648 0.03908062
0.030385993 -0.026552036 0.028687207 -0.040991694 0.031294305 0.046897117 -0.053381883 -0.02629185
-0.0018024622 -0.0012637821 0.010926967 0.007833659 0.038684383 -0.018002944 -0.00096750807 -0.015414359
0.0184725 0.0093620075 0.047734793 0.034115657 -0.0057861446 -0.018699627 -0.013584592 -0.03961215
0.06951198 -0.04813863 0.059795532 -0.019701475 -0.018462287 -0.002184054 -0.011052867 -0.03696831
-0.034845784 -0.013695271 -0.00029290834 0.06277547
